…
utmix\n\n#### A3. Backbone 1D CNN Architecture\n\nWe designed 1D-CNN based on timm[3]'s EfficientNet2d's building blocks. We called this architecture as *EfficientNet1d*.\n\n```\n========================================================================================================================\nLayer (type:depth-idx)                                                 Output Shape              Param #\n========================================================================================================================\nEfficientNet1d                                                         [40, 64, 16]              --\n├─ConvBnAct2d: 1-1                                                     [4, 64, 10, 512]          --\n│    └─Sequential: 2-1                                                 [4, 64, 10, 512]          --\n│    │    └─Conv2d: 3-1                                                [4, 64, 10, 512]          384\n│    │    └─BatchNorm2d: 3-2                                           [4, 64, 10, 512]          128\n│    │    └─ELU: 3-3                                                   [4, 64, 10, 512]          --\n├─Sequential: 1-2                                                      --                        --\n│    └─ResBlock2d: 2-2                                                 [4, 64, 10, 256]          --\n│    │    └─MaxPool2d: 3-4                                             [4, 64, 10, 256]          --\n│    │    └─Sequential: 3-5                                            [4, 64, 10, 256]          --\n│    │    │    └─Sequential: 4-1                                       [4, 64, 10, 512]          --\n│    │    │    │    └─InvertedResidual: 5-1                            [4, 64, 10, 512]          55,104\n│    │    │    │    └─InvertedResidual: 5-2                            [4, 64, 10, 512]          55,104\n│    │    │    │    └─InvertedResidual: 5-3                            [4, 64, 10, 512]          55,104\n│    │    │    │    └─DepthWiseSeparableConv: 5-4                      [4, 64, 10, 512]          6,672\n│    │    │    └─MaxPool2d: 4-2                                        [4, 64, 10, 256]          --\n│    └─ResBlock2d: 2-3                                                 [4, 64, 10, 128]          --\n│    │    └─MaxPool2d: 3-6                                             [4, 64, 10, 128]          --\n│    │    └─Sequential: 3-7                                            [4, 64, 10, 128]          --\n│    │    │    └─Sequential: 4-3                                       [4, 64, 10, 256]          --\n│    │    │    │    └─InvertedResidual: 5-5                            [4, 64, 10, 256]          55,104\n│    │    │    │    └─InvertedResidual: 5-6                            [4, 64, 10, 256]          55,104\n│    │    │    │    └─InvertedResidual: 5-7                            [4, 64, 10, 256]          55,104\n│    │    │    │    └─DepthWiseSeparableConv: 5-8                      [4, 64, 10, 256]          6,672\n│    │    │    └─MaxPool2d: 4-4                                        [4, 64, 10, 128]          --\n│    └─ResBlock2d: 2-4                                                 [4, 64, 10, 64]           --\n│    │    └─MaxPool2d: 3-8                                             [4, 64, 10, 64]           --\n│    │    └─Sequential: 3-9                                            [4, 64, 10, 64]           --\n│    │    │    └─Sequential: 4-5                                       [4, 64, 10, 128]          --\n│    │    │    │    └─InvertedResidual: 5-9                            [4, 64, 10, 128]          55,616\n│    │    │    │    └─InvertedResidual: 5-10                           [4, 64, 10, 128]          55,616\n│    │    │    │    └─InvertedResidual: 5-11                           [4, 64, 10, 128]          55,616\n│    │    │    │    └─DepthWiseSeparableConv: 5-12                     [4, 64, 10, 128]          6,672\n│    │    │    └─MaxPool2d: 4-6                                        [4, 64, 10, 64]           --\n│    └─ResBlock2d: 2-5                                                 [4, 64, 10, 32]           --\n│    │    └─MaxPool2d: 3-10                                            [4, 64, 10, 32]           --\n│    │    └─Sequential: 3-11                                           [4, 64, 10, 32]           --\n│    │    │    └─Sequential: 4-7                                       [4, 64, 10, 64]           --\n│    │    │    │    └─InvertedResidual: 5-13                           [4, 64, 10, 64]           55,616\n│    │    │    │    └─InvertedResidual: 5-14                           [4, 64, 10, 64]           55,616\n│    │    │    │    └─InvertedResidual: 5-15                           [4, 64, 10, 64]           55,616\n│    │    │    │    └─DepthWiseSeparableConv: 5-16                     [4, 64, 10, 64]           6,672\n│    │    │    └─MaxPool2d: 4-8                                        [4, 64, 10, 32]           --\n│    └─ResBlock2d: 2-6                                                 [4, 64, 10, 16]           --\n│    │    └─MaxPool2d: 3-12                                            [4, 64, 10, 16]           --\n│    │    └─Sequential: 3-13                                           [4, 64, 10, 16]           --\n│    │    │    └─Sequential: 4-9                                       [4, 64, 10, 32]           --\n│    │    │    │    └─InvertedResidual: 5-17                           [4, 64, 10, 32]           55,104\n│    │    │    │    └─InvertedResidual: 5-18                           [4, 64, 10, 32]           55,104\n│    │    │    │    └─InvertedResidual: 5-19                           [4, 64, 10, 32]           55,104\n│    │    │    │    └─DepthWiseSeparableConv: 5-20                     [4, 64, 10, 32]           6,672\n│    │    │    └─MaxPool2d: 4-10                                       [4, 64, 10, 16]           --\n========================================================================================================================\nTotal params: 863,504\nTrainable params: 863,504\nNon-trainable params: 0\nTotal mult-adds (G): 2.72\n========================================================================================================================\nInput size (MB): 0.16\nForward/backward pass size (MB): 833.78\nParams size (MB): 3.45\nEstimated Total Size (MB): 837.40\n========================================================================================================================\n```", "post_date": "2024-04-09"}
…
